…
11887/11936 [============================>.] - ETA: 0s - loss: 0.1004 - accuracy: 0.949511936/11936 [==============================] - 12s 1ms/step - loss: 0.1004 - accuracy: 0.9495

Test loss: 0.10035232454538345
Test accuracy: 0.9494624733924866
Model: "sequential"
_________________________________________________________________
 Layer (type)                Output Shape              Param #   
=================================================================
 dense (Dense)               (None, 128)               12288     
                                                                 
 batch_normalization (BatchN  (None, 128)              512       
 ormalization)                                                   
                                                                 
 dropout (Dropout)           (None, 128)               0         
                                                                 
 dense_1 (Dense)             (None, 64)                8256      
                                                                 
 batch_normalization_1 (Batc  (None, 64)               256       
 hNormalization)                                                 
                                                                 
 dropout_1 (Dropout)         (None, 64)                0         
                                                                 
 dense_2 (Dense)             (None, 15)                975       
                                                                 
=================================================================
Total params: 22,287
Trainable params: 21,903
Non-trainable params: 384
_________________________________________________________________
    1/11936 [..............................] - ETA: 24:07   53/
…
